examples/outputs/burgers/flow_network.0.pth (torch, 4899 bytes, 12 tensors)

_impl.layers.0.base_weight f4 [2, 2]
00000000: 24f1 3c3e a2fe e93d 6a22 aebe 7163 54be
0.18451363 0.114255205 -0.3401063 -0.20741059

_impl.layers.0.spline_weight f4 [2, 2, 8]
00000000: cb13 b5be c50a c3bd 8e4c ad3e e8ac 393e
00000010: a8c6 67be ca8a b3be 8ac9 1b3e 25ea f63e
00000020: 385f 8dba 58c2 a73b 7472 813f f147 233e
00000030: 1952 08be b98b ffbd 0c7d 2abd 5282 023e
00000040: bc20 0b3f 1473 af3d a794 02be c181 873e
00000050: f4a1 61be b9dc 7d3e 7acb 69be 6ee1 f7be
00000060: 087b 473c 1017 173d ab6f 1fbf 0cfb 3abe
00000070: 5585 2a3e c5b3 983e 8881 d83e 8a63 fe3e
-0.35366663 -0.095235385 0.3384747 0.18132365 -0.22634375 -0.35066825 0.152136 0.48225513
-0.0010785824 0.005119603 1.0113053 0.15945412 -0.13312568 -0.12477822 -0.04162316 0.12745026
0.54346824 0.08566871 -0.12752019 0.26466182 -0.22034436 0.2479123 -0.22831526 -0.48414177
0.012175329 0.03688723 -0.62279767 -0.1825983 0.16652425 0.29824653 0.42286325 0.49685317

_impl.layers.0.spline_scaler f4 [2, 2]
00000000: 3441 75bf 5c02 1f3f 7a70 83bf 4afe 50bf
-0.9580262 0.62112975 -1.02687 -0.81638014

_impl.layers.0.grid f4 [2, 12]
00000000: cdcc 0cc0 6666 e6bf 3333 b3bf 0000 80bf
00000010: 9a99 19bf cccc 4cbe d0cc 4c3e 9a99 193f
00000020: 0000 803f 3433 b33f 6666 e63f cdcc 0c40
00000030: cdcc 0cc0 6666 e6bf 3333 b3bf 0000 80bf
00000040: 9a99 19bf cccc 4cbe d0cc 4c3e 9a99 193f
00000050: 0000 803f 3433 b33f 6666 e63f cdcc 0c40
-2.2 -1.8 -1.4 -1.0 -0.6 -0.19999999 0.20000005 0.6
1.0 1.4000001 1.8 2.2 -2.2 -1.8 -1.4 -1.0
-0.6 -0.19999999 0.20000005 0.6 1.0 1.4000001 1.8 2.2

_impl.layers.1.base_weight f4 [2, 2]
00000000: b91e 033f 44a7 893e 1112 453f d2d7 32be
0.51218754 0.26885426 0.7698069 -0.17465141

_impl.layers.1.spline_weight f4 [2, 2, 8]
00000000: 4c78 243c 4112 893e ae4a db3e 4b9f b13e
00000010: 7fd9 8cbe 2f85 c0be 13a7 8c3d 3ab4 453c
00000020: 8129 0ebf 20c4 313f f130 223e a58d c0be
00000030: 77e5 903e aafb 253f 0e9e 32bc 3cfe 19bc
00000040: 4885 cebb 9bb3 3abe ae61 06bf 2eca abbe
00000050: 0c54 843e 1d3e 973e 870b 32bd a329 313c
00000060: c57b 1c3f 7713 41bf 5e15 edba 59da 453e
00000070: 19e6 5fbe 6e2f 23bf 70ac b93b 30fa e63b
0.010038447 0.2677174 0.42830414 0.34691843 -0.27509686 -0.3760161 0.068678044 0.012066895
-0.5553208 0.6943989 0.15838982 -0.37608066 0.28300068 0.64837134 -0.010901941 -0.009398993
-0.0063025095 -0.18232577 -0.524928 -0.33552688 0.25845373 0.29539576 -0.043468025 0.01081315
0.6112636 -0.75420326 -0.0018088033 0.19321574 -0.21865119 -0.63744247 0.005666308 0.0070488676

_impl.layers.1.spline_scaler f4 [2, 2]
00000000: 02d7 8ebf 0e01 30bf 0678 d13e 5711 313f
-1.1159365 -0.6875161 0.40911883 0.69167084

_impl.layers.1.grid f4 [2, 12]
00000000: cdcc 0cc0 6666 e6bf 3333 b3bf 0000 80bf
00000010: 9a99 19bf cccc 4cbe d0cc 4c3e 9a99 193f
00000020: 0000 803f 3433 b33f 6666 e63f cdcc 0c40
00000030: cdcc 0cc0 6666 e6bf 3333 b3bf 0000 80bf
00000040: 9a99 19bf cccc 4cbe d0cc 4c3e 9a99 193f
00000050: 0000 803f 3433 b33f 6666 e63f cdcc 0c40
-2.2 -1.8 -1.4 -1.0 -0.6 -0.19999999 0.20000005 0.6
1.0 1.4000001 1.8 2.2 -2.2 -1.8 -1.4 -1.0
-0.6 -0.19999999 0.20000005 0.6 1.0 1.4000001 1.8 2.2

_impl.layers.2.base_weight f4 [1, 2]
00000000: 95c6 47bf 792c 3cbf
-0.7803739 -0.7350536

_impl.layers.2.spline_weight f4 [1, 2, 8]
00000000: f8d6 11bc 364e 04be c595 5cbe f7af d1be
00000010: 12cb 9d3e 8fbd be3d 40c7 863f 90fc b7bb
00000020: 00f3 b5bb 2dd6 1a3f 035f d73e 6345 953e
00000030: eca3 59be bd59 8cbe 3802 42bf e01e b73b
-0.00890135 -0.1292046 -0.21541508 -0.40954563 0.30818993 0.09313499 1.0529556 -0.0056148246
-0.0055526495 0.60483056 0.42064676 0.291545 -0.21253937 -0.27412215 -0.75784636 0.0055883974

_impl.layers.2.spline_scaler f4 [1, 2]
00000000: c9cc 04bf e4a1 753f
-0.5187498 0.9595015

_impl.layers.2.grid f4 [2, 12]
00000000: cdcc 0cc0 6666 e6bf 3333 b3bf 0000 80bf
00000010: 9a99 19bf cccc 4cbe d0cc 4c3e 9a99 193f
00000020: 0000 803f 3433 b33f 6666 e63f cdcc 0c40
00000030: cdcc 0cc0 6666 e6bf 3333 b3bf 0000 80bf
00000040: 9a99 19bf cccc 4cbe d0cc 4c3e 9a99 193f
00000050: 0000 803f 3433 b33f 6666 e63f cdcc 0c40
-2.2 -1.8 -1.4 -1.0 -0.6 -0.19999999 0.20000005 0.6
1.0 1.4000001 1.8 2.2 -2.2 -1.8 -1.4 -1.0
-0.6 -0.19999999 0.20000005 0.6 1.0 1.4000001 1.8 2.2
