examples/outputs/heat/flow_network.0.pth (torch, 4899 bytes, 12 tensors)

_impl.layers.0.base_weight f4 [2, 2]
0	0x3d0e85d2	0.03479559
1	0xbf771fcb	-0.9653289
2	0x3e4e8d2f	0.20171045
3	0xbf297d38	-0.66206694

_impl.layers.0.spline_weight f4 [2, 2, 8]
0	0x3f29abae	0.6627759
1	0x3ed03bed	0.4067072
2	0xbd97dd11	-0.07415212
3	0xbed90271	-0.42384675
4	0xbee00a21	-0.43757728
5	0xbde665bd	-0.11249874
6	0x3ea46e86	0.32115573
7	0x3ef91077	0.48645374
8	0xbc3cbf54	-0.011520226
9	0xbd1285d4	-0.03577216
10	0x3ed09f72	0.40746647
11	0x3e283b5a	0.16428891
12	0x3d486561	0.048924807
13	0xbd6fd641	-0.058553938
14	0xbd7125c5	-0.05887391
15	0x3d2cca38	0.04218504
16	0x3f31ff00	0.69529724
17	0x3eb4ea14	0.35334837
18	0xbde4a08e	-0.11163436
19	0xbec4b5fc	-0.38420093
20	0xbec60115	-0.386727
21	0xbe393c31	-0.18089367
22	0x3e363816	0.17794833
23	0x3eda7869	0.4266999
24	0xbb7ec560	-0.003887497
25	0xbca9577c	-0.020671599
26	0x3de65fa8	0.11248714
27	0x3db20fe9	0.08694441
28	0x3d4c81b5	0.049928386
29	0x3da12008	0.078674376
30	0xbd8b36f9	-0.067975946
31	0xbe5328a4	-0.20620972

_impl.layers.0.spline_scaler f4 [2, 2]
0	0xbf3a0914	-0.726701
1	0x3f3eb903	0.74501055
2	0x3f5b67a3	0.8570501
3	0xbea8cec3	-0.32970247

_impl.layers.0.grid f4 [2, 12]
0	0xc00ccccd	-2.2
1	0xbfe66666	-1.8
2	0xbfb33333	-1.4
3	0xbf800000	-1.0
4	0xbf19999a	-0.6
5	0xbe4ccccc	-0.19999999
6	0x3e4cccd0	0.20000005
7	0x3f19999a	0.6
8	0x3f800000	1.0
9	0x3fb33334	1.4000001
10	0x3fe66666	1.8
11	0x400ccccd	2.2
12	0xc00ccccd	-2.2
13	0xbfe66666	-1.8
14	0xbfb33333	-1.4
15	0xbf800000	-1.0
16	0xbf19999a	-0.6
17	0xbe4ccccc	-0.19999999
18	0x3e4cccd0	0.20000005
19	0x3f19999a	0.6
20	0x3f800000	1.0
21	0x3fb33334	1.4000001
22	0x3fe66666	1.8
23	0x400ccccd	2.2

_impl.layers.1.base_weight f4 [2, 2]
0	0xbeb91724	-0.36150467
1	0x3f79012f	0.9726743
2	0xbf81e532	-1.014807
3	0x3f685117	0.90748733

_impl.layers.1.spline_weight f4 [2, 2, 8]
0	0x3f267e4e	0.65036476
1	0x3ee7c767	0.4526932
2	0x3e7e9e2a	0.24865022
3	0x3d36fa47	0.044672277
4	0xbe4f99f8	-0.20273578
5	0xbf1c5fb9	-0.6108356
6	0xbf4fd72f	-0.8118772
7	0x3c1583f0	0.009125695
8	0xbed188eb	-0.40924773
9	0xbf0a1e71	-0.539527
10	0xbede1d54	-0.4338175
11	0xbea363f0	-0.31912184
12	0xbda3f042	-0.0800481
13	0x3ed299a7	0.41132852
14	0x3ed9dda3	0.42551908
15	0x3a4de6e0	0.00078545325
16	0x3ee3a7d0	0.44463968
17	0x3ea5dc24	0.32394516
18	0x3e0cfe23	0.1376882
19	0xbd234ce5	-0.039868254
20	0xbe3555d2	-0.17708519
21	0xbef609a5	-0.48054233
22	0xbf50d24f	-0.81570905
23	0x3c022046	0.007942265
24	0xbee7f242	-0.45302016
25	0xbec37220	-0.38173008
26	0xbea97a5e	-0.3310117
27	0xbe62dd91	-0.22154833
28	0xbda75dd0	-0.0817219
29	0x3ea676ee	0.3251261
30	0x3ebbe988	0.36701608
31	0xba31c818	-0.00067818305

_impl.layers.1.spline_scaler f4 [2, 2]
0	0x3f268a9d	0.6505526
1	0x3f64040a	0.89068663
2	0x3f6d6f21	0.92747694
3	0x3f5a2ac3	0.852215

_impl.layers.1.grid f4 [2, 12]
0	0xc00ccccd	-2.2
1	0xbfe66666	-1.8
2	0xbfb33333	-1.4
3	0xbf800000	-1.0
4	0xbf19999a	-0.6
5	0xbe4ccccc	-0.19999999
6	0x3e4cccd0	0.20000005
7	0x3f19999a	0.6
8	0x3f800000	1.0
9	0x3fb33334	1.4000001
10	0x3fe66666	1.8
11	0x400ccccd	2.2
12	0xc00ccccd	-2.2
13	0xbfe66666	-1.8
14	0xbfb33333	-1.4
15	0xbf800000	-1.0
16	0xbf19999a	-0.6
17	0xbe4ccccc	-0.19999999
18	0x3e4cccd0	0.20000005
19	0x3f19999a	0.6
20	0x3f800000	1.0
21	0x3fb33334	1.4000001
22	0x3fe66666	1.8
23	0x400ccccd	2.2

_impl.layers.2.base_weight f4 [1, 2]
0	0xbf01dd84	-0.5072863
1	0xbf3c20eb	-0.7348773

_impl.layers.2.spline_weight f4 [1, 2, 8]
0	0x3f7203e6	0.945372
1	0x3f351386	0.70732915
2	0x3efbd837	0.49188396
3	0x3e8656ee	0.26238197
4	0x3d40ebaa	0.047099747
5	0xbe1b025c	-0.15137619
6	0xbd0db887	-0.034599807
7	0xbc3285b4	-0.010896135
8	0xbf3daf2d	-0.7409542
9	0xbf2cf6bb	-0.6756398
10	0xbec551d1	-0.38538983
11	0xbe080cc6	-0.13286123
12	0xbd66f66f	-0.05638736
13	0xbde54cf4	-0.11196318
14	0xbc98f031	-0.01866922
15	0x3bfa2ef6	0.0076349927

_impl.layers.2.spline_scaler f4 [1, 2]
0	0x3f0377ad	0.51354486
1	0xbf2357b3	-0.63805693

_impl.layers.2.grid f4 [2, 12]
0	0xc00ccccd	-2.2
1	0xbfe66666	-1.8
2	0xbfb33333	-1.4
3	0xbf800000	-1.0
4	0xbf19999a	-0.6
5	0xbe4ccccc	-0.19999999
6	0x3e4cccd0	0.20000005
7	0x3f19999a	0.6
8	0x3f800000	1.0
9	0x3fb33334	1.4000001
10	0x3fe66666	1.8
11	0x400ccccd	2.2
12	0xc00ccccd	-2.2
13	0xbfe66666	-1.8
14	0xbfb33333	-1.4
15	0xbf800000	-1.0
16	0xbf19999a	-0.6
17	0xbe4ccccc	-0.19999999
18	0x3e4cccd0	0.20000005
19	0x3f19999a	0.6
20	0x3f800000	1.0
21	0x3fb33334	1.4000001
22	0x3fe66666	1.8
23	0x400ccccd	2.2
